transformer/alpha_encoder.pt (torch, 263816 bytes, 8 tensors)

weight f4 [128, 200]
000000 5d d0 27 bc 7c 1a 8e 3b b7 bd 96 3c 70 f8 55 3c
       -0.010242549 0.0043366533 0.01840101 0.01305972
000010 d6 7a f7 bd 9a a4 95 3d d0 54 89 bd f6 a3 40 39
       -0.12083976 0.07306786 -0.0670563 0.00018371627
000020 c8 c7 e0 bc bb f2 62 be cc 7b 48 bd 22 1d e7 3c
       -0.027439013 -0.22162907 -0.048946187 0.028212134
000030 36 0c 5f bc c2 0f c0 3c ed 14 5c bd 8d f3 bc bb
       -0.013613751 0.023445014 -0.053730894 -0.005766338
000040 dc 0f 30 3d ba 87 6e bd 57 35 b1 bd 44 2d d1 3d
       0.042983875 -0.058234908 -0.08652752 0.10213712
000050 6b dc 4c bd 84 a7 11 3e 7c 20 06 be 1f f2 fc bc
       -0.050014894 0.14224058 -0.1309833 -0.030877171
000060 16 cc 67 3d 75 65 3e be cc 00 4a be fe 4e f5 3c
       0.056591116 -0.1859339 -0.19726866 0.029944893
000070 ca a2 e9 3d 7f 3c 2d 3d 30 11 b2 39 ab 19 97 3e
       0.11408003 0.04229402 0.0003396361 0.2951177
000080 ed cb 1d 3d 04 60 35 3d 38 9b 0e 3e 24 80 a5 be
       0.038524557 0.04428102 0.13926399 -0.32324326
000090 c3 15 da 3d 85 78 18 bc cb c6 37 3c d7 84 45 be
       0.10648682 -0.009306078 0.0112168295 -0.19288956
0000a0 2d 2d f3 3d 07 5b ed bd d7 88 10 bc bd 60 d0 bd
       0.11873851 -0.11589628 -0.008821688 -0.10174701
0000b0 a8 14 04 be f2 bb 17 be 47 77 81 3c 90 e5 bf 3d
       -0.12898505 -0.14817789 0.015803946 0.093699574
0000c0 83 a8 88 3d 88 fe 03 3d 0f a2 89 bb 2e 8a 7b 3d
       0.06672766 0.03222516 -0.004200227 0.061411075
0000d0 e7 91 b5 bd 06 5c 1c 3e 21 8f 57 3d 26 6c 95 bd
       -0.08865719 0.15269479 0.052626733 -0.07296018
0000e0 4c 56 ca bd e5 97 f5 bd ff 4b 7e bd c3 f1 df 3d
       -0.09879741 -0.11991862 -0.062084194 0.10934784
0000f0 10 b1 28 3d 1b bb 3f 3e f7 93 3d 3e 01 3d fd 3d
       0.041184485 0.18723719 0.18513475 0.12365151
000100 e9 da d3 bc 4d 8c c3 3b 71 85 5a 3d 8c ba bc ba
       -0.02586122 0.005967653 0.053349916 -0.0014398857
000110 db 04 3b bd 42 d6 12 bd f4 1d 5a bd ef 75 62 3e
       -0.045658927 -0.035848863 -0.05325122 0.221153
000120 9c 26 01 bd c6 76 48 bd e5 77 a1 bd 1a b5 b4 3d
       -0.03153096 -0.048941396 -0.07884196 0.08823605
000130 6a 57 ef bd 84 6a 9f bd 91 ce 25 3e a9 be fd 3b
       -0.11686595 -0.07783988 0.1619208 0.0077436757
000140 c7 62 17 3d 4d b9 e4 bc dd 95 70 bd ab ea 2f bd
       0.036959436 -0.02792039 -0.05873667 -0.042948406
000150 39 3e f6 bd 7f 54 3f 3d e7 d5 ec bd 9d 19 9c 3c
       -0.12023587 0.04671144 -0.11564236 0.019055182
000160 0f 25 fe 3d c3 b4 a4 bd dc 5f eb 3c 69 54 42 3d
       0.12409412 -0.0804229 0.028732233 0.04744378
000170 7c e3 ca bc df f6 32 3d 6b a7 de bc c0 ea 71 3d
       -0.024766676 0.043692466 -0.02717944 0.059061766
000180 df 1a 1b 3e 58 83 fe 3d 33 4b 00 3d 44 0f 29 3c
       0.1514697 0.124273956 0.031321716 0.010318581
000190 d9 06 1a be a9 0c 94 3c 12 15 05 bd a3 30 dc 3d
       -0.15041675 0.018072443 -0.032490797 0.10751464
0001a0 c9 27 b5 bd 8b c9 23 bd af f5 0d bd f6 7e ac 3d
       -0.08845479 -0.03998713 -0.03465813 0.084226534
0001b0 cb 7e 9a bd aa af 23 be 48 93 06 be e3 a4 46 3d
       -0.07543715 -0.1598498 -0.13142121 0.048497092
0001c0 59 d7 18 3d 1b f6 67 3d 37 80 6c bd 39 f1 05 bc
       0.037314747 0.05663119 -0.057739463 -0.008175188
0001d0 b5 98 14 be 2a 03 d8 bc ce 05 74 3d de 7d 49 3d
       -0.14511378 -0.026368696 0.05957585 0.049192302
0001e0 e0 ba 62 bd d4 4a 51 3c 4f 0e 58 3d cb 79 04 3c
       -0.055354 0.012774188 0.05274802 0.008085678
0001f0 bf b7 36 bc 7b 17 3c 3d dc 7f a1 ba 78 44 d9 3d
       -0.011152207 0.04592083 -0.001232143 0.106087625
000200 7c 98 40 3d 36 27 27 bd c8 a9 01 3d 2c 51 3a bc
       0.04702042 -0.04080888 0.031656057 -0.011371892
000210 e9 c6 16 bd 03 7b 1f 3e 7a e7 0a 3d e3 3d d7 3c
       -0.03681079 0.15574269 0.03391216 0.026274627
000220 fe 90 a8 3c 5d 23 2e 3d 95 3a c3 3c 0d c0 94 bd
       0.02057695 0.042514194 0.023831645 -0.07263193
000230 d8 3f 43 bc d7 3d d2 3d 0a 9f a1 3e ec 18 d9 3c
       -0.011917077 0.10265701 0.3156665 0.026501141
000240 87 30 71 3d d1 64 20 bd 63 4f 82 3d ad 6d f4 bd
       0.05888417 -0.039158646 0.06362798 -0.119349815
000250 8b 8c 32 3b 0f 64 66 bc 2b af af 3d 0b ea c6 3d
       0.0027244415 -0.014061942 0.085783325 0.09712609
000260 70 b1 93 bd 7d 30 3f bd 55 ee ab 3d 3e 11 16 3b
       -0.07211578 -0.0466771 0.083950676 0.002289846
000270 f6 3c e0 bd 2f 5b 9c 3d 7c 10 8a bc 28 c4 e2 bc
       -0.109491274 0.076345794 -0.016853563 -0.027681425
000280 44 4a ed 3d af 15 8b 3d fd 90 8b 3d d0 da 3f bd
       0.11586431 0.06791245 0.06814764 -0.046839535
000290 ed b8 9b bd 2b 93 36 3d b1 0c 58 3d 02 7c 12 3d
       -0.07603631 0.044573944 0.05274648 0.035762794
0002a0 cd 78 7f 3d e8 bf 61 bd 45 2a c8 3d bd 15 5f bd
       0.062371064 -0.055114657 0.09773687 -0.05446409
0002b0 b5 1f 0d 3e 96 8f ff bc 2a 18 54 3d c1 98 cb bd
       0.13781627 -0.031196397 0.051780857 -0.09941245
0002c0 26 ee 3e bd a2 7d 1a 3e b5 bc bb 3c f4 62 00 3d
       -0.046613835 0.15086988 0.022917131 0.03134437
0002d0 43 13 a7 3d 63 60 4a 3b bb 6a bf 3d 6f 7d 82 3d
       0.08157971 0.0030880205 0.09346529 0.06371581
0002e0 bc 9d 31 bd 65 f6 57 bc 43 7d df bc 97 2c 90 3d
       -0.043363318 -0.013181304 -0.02728141 0.07039755
0002f0 20 c9 9b 3b 2e 41 b9 3d 07 c9 72 3d e7 66 3c 3d
       0.0047542006 0.09045635 0.059273746 0.045996573
000300 aa 09 b1 bd e9 3d 24 bd f1 86 da 3c cf 97 3b 3c
       -0.086444214 -0.040098105 0.026675673 0.011449768
000310 e0 9e a1 3d 61 56 13 3d 7e e7 45 3c ee 84 a5 3c
       0.07891631 0.03597105 0.012079118 0.020204987
000320 70 c7 af bd 4d 75 c7 3b 29 14 1f 3d 62 7c d0 bb
       -0.085829616 0.0060869814 0.038837586 -0.006362484
000330 1f 00 2b 3d b9 88 08 be 52 e3 e7 bd d0 b1 19 bd
       0.041748162 -0.13333406 -0.11322655 -0.03752309
000340 a2 fb 14 3d 80 67 fe 3d 47 06 a0 3c 49 31 01 3d
       0.03637279 0.12422085 0.019534243 0.031541143
000350 4d 71 13 be d3 29 fe 3c e8 d9 23 3d 06 c6 df 3c
       -0.1439869 0.031025803 0.040002733 0.027316105
000360 a5 f1 82 bd 9c bc e7 39 20 0d 16 be e8 82 02 3f
       -0.06393746 0.00044200278 -0.14653444 0.50981
000370 05 5b b0 3d 82 0c 98 3c 97 7b e2 ba 27 54 83 3d
       0.086111106 0.018560652 -0.0017279264 0.06412535
000380 06 c2 04 3d d4 75 a0 3d 16 92 38 bc 18 7c a3 3d
       0.032411598 0.07834974 -0.011265298 0.079826534
000390 e8 19 ba 3d f9 cd cf bc b2 87 9b bd b5 bd 04 3e
       0.090869725 -0.02536677 -0.07594241 0.12962992
0003a0 c5 d9 e8 bd 53 21 8a bd 31 8c ec bc 58 7e 0a 3d
       -0.11369661 -0.06744637 -0.028875442 0.033811897
0003b0 c8 c4 d7 bd 6b d5 8a 3d c7 a8 ac 3d 69 f0 34 bd
       -0.1053558 0.067789875 0.08430629 -0.044174585
0003c0 0c a3 bf 3d cf 39 ab 3d c7 58 3a be d4 50 47 b8
       0.093572706 0.083606355 -0.18197928 -4.7520574e-05
0003d0 75 b4 e8 bb 9e ca 84 bd 99 0a b4 bd 65 89 9b bd
       -0.0071015903 -0.06483959 -0.08791084 -0.07594565
0003e0 a0 bd ae 3d 1f c4 f3 3d 9b f9 a2 bc 38 55 a5 3d
       0.08532262 0.119026415 -0.019894412 0.08072895
0003f0 e3 55 a9 3c dc 69 2e bd cf af 11 3c 68 bd f3 bd
       0.020670837 -0.042581424 0.008892014 -0.11901361

bias f4 [128]
000000 61 c9 7a 3e 01 56 0f 3e 3e 93 ff bb 29 c4 64 3e
       0.24490882 0.13997652 -0.007799535 0.22340454
000010 64 60 58 3e 35 a7 a7 3d 68 62 a4 3e 28 fd 39 bc
       0.2113052 0.08186189 0.32106328 -0.011351861
000020 50 b8 b6 3d a6 64 8b bc 6a 62 a3 3e ec 39 57 bc
       0.089218736 -0.017015766 0.3191102 -0.013136368
000030 b7 21 64 3e df 97 30 3a 25 11 6a 3c 68 7d 71 3e
       0.22278486 0.0006736498 0.014286314 0.23582995
000040 c0 93 34 3d 81 d4 5b 3e 13 27 91 3c 2c cb 38 bc
       0.044086218 0.21467783 0.017718827 -0.011278909
000050 3a cd 02 bd 55 a0 92 3e 43 06 11 bc 36 71 92 bc
       -0.031934 0.2863795 -0.008851591 -0.017876249
000060 d1 3a 8f 3d 49 de a1 3e 2d cc a8 3e cd af b6 3e
       0.0699364 0.31614903 0.32968274 0.35681
000070 d7 a8 ac 3e d3 44 56 3d e5 9c 6b 3e 75 63 5a 3e
       0.33722565 0.05231173 0.2300907 0.21327002
000080 72 f7 15 bc 51 05 8b 3e 17 e7 48 bc d8 1f 90 3d
       -0.009153234 0.27152494 -0.012262127 0.07037324
000090 20 4e 8d 3e 4f 8d c8 bc 65 6c a9 3e 23 8d 26 3e
       0.27598667 -0.024481444 0.3309051 0.16264777
0000a0 2b b9 83 3e 52 9f 53 bc 13 14 aa 3e 65 93 1c 3d
       0.2572721 -0.012916403 0.3321844 0.038226504
0000b0 a1 28 74 3e 9e 9e 1d 3e 29 11 c3 3e 31 ad ab 3e
       0.23843624 0.15392539 0.3809903 0.33530572
0000c0 ab 54 b3 3e da dd 8a 3e 65 91 b7 3e 4c bf 90 3e
       0.35025534 0.27122384 0.35853115 0.28270948
0000d0 1a 55 a6 3e a3 5b 30 3e fc e9 47 bc 48 63 b1 3e
       0.32486802 0.17222457 -0.012201782 0.34646058
0000e0 0e 3e 17 3e 19 4e 80 3e a6 74 a7 3d 70 55 cd 3e
       0.14769766 0.25059584 0.08176546 0.40104246
0000f0 32 c5 02 3e 02 b0 58 bd 30 e7 9e 3e 66 ff ac 3e
       0.12770537 -0.05290223 0.31035757 0.33788604
000100 ad 66 8a 3e 3a 38 8a 3e 3a 5d a3 3e 0b 03 cc 3e
       0.2703146 0.26996022 0.31907064 0.39846072
000110 39 c3 23 3e 24 6e 08 3e 06 91 8f 3c a2 96 c4 3e
       0.1599244 0.13323265 0.017525207 0.38396174
000120 4f de 8c 3e b2 70 d2 3e 21 cd ab 3e 62 3f e1 3e
       0.27513358 0.41101605 0.33554938 0.4399367
000130 78 82 31 3e 84 c0 eb 3e 68 83 87 3e 79 ae 6c 3e
       0.17334926 0.46045315 0.26467443 0.23113431
000140 e5 65 8c 3e 98 d0 a4 3e 62 1b 1b 3e 87 82 db 3e
       0.2742149 0.32190394 0.15147164 0.42873022
000150 28 33 55 3e a9 38 73 3e 41 3d 4c 3e a7 97 37 3e
       0.20820296 0.23752083 0.19945242 0.17928945
000160 44 f2 d9 3e 17 18 b0 3e 4a d0 e6 3d e9 a9 7f 3e
       0.42567647 0.3439338 0.11270197 0.2496716
000170 07 e1 6e 3e a0 e8 a4 3e ab 21 0f 3e e1 f7 9a 3e
       0.23328029 0.3220873 0.13977687 0.30267242
000180 23 71 ff 3d 26 17 2f bd 05 55 8e 3d 44 21 cd 3e
       0.12472751 -0.042746685 0.0694981 0.40064442
000190 a8 c2 ac bb 24 cd e8 3d a5 7e 87 3e 7d e5 7a 3e
       -0.0052722283 0.113672525 0.2646381 0.24501605
0001a0 cb 74 96 3e fc dd c3 3e f5 ce f6 3d dc 7e 2d 3e
       0.2938598 0.38255298 0.12051193 0.16942924
0001b0 d7 e1 6c 3e b1 ad ae 3e f8 dd 5c 3e 49 b0 cc 3d
       0.23133026 0.3411689 0.2156905 0.09994561
0001c0 97 22 1b 3d e2 db ae 3d a0 95 38 3c e2 a0 3c 3e
       0.037874784 0.08538033 0.011266142 0.18420747
0001d0 b4 a4 30 3e 63 c9 fd bb 08 e7 a6 3e 4d 80 51 3e
       0.1725033 -0.0077449544 0.32598138 0.20459099
0001e0 43 6d 5b 3e aa 09 4c bd 2a d8 e5 3e 06 a6 42 bc
       0.21428399 -0.049813904 0.44891483 -0.011880403
0001f0 5c 5b 00 3c 00 92 b1 bd 67 33 67 3e 95 a7 88 3e
       0.007834282 -0.086704254 0.22578202 0.26690355

weight f4 [50, 128]
000000 a6 fc b6 3c 38 07 29 bd 57 20 35 3d 3b a1 11 3c
       0.022337269 -0.04126665 0.044220295 0.008888538
000010 fd 4b 53 bd 83 67 a6 bd 45 62 9d bd da 62 19 3e
       -0.05158614 -0.08125212 -0.07684759 0.14979115
000020 75 0e 01 3e 02 18 84 bd 71 5a 06 3e 3f 82 24 3d
       0.12603171 -0.064498916 0.13120438 0.040163275
000030 36 15 af 3d cb 65 96 bb ed fc b2 3d 5b a3 ec 3d
       0.085489675 -0.0045897714 0.08739648 0.11554595
000040 d8 6b c9 bc 8e e7 24 3e fd 0b 38 bd 3f 53 12 bd
       -0.024587557 0.16103956 -0.044933308 -0.03572392
000050 3a d4 e5 bd ec 22 36 3e 8a e6 0c be 92 c3 3a bd
       -0.1122212 0.17786759 -0.13759819 -0.045596667
000060 e6 5d c7 3c ee 46 12 3c a9 e3 8c 3d 8e 31 99 3d
       0.024336766 0.008928044 0.0687936 0.07480155
000070 8c a9 b3 bb 93 22 78 3d 69 9b 3b bd 38 6e c0 bd
       -0.005482858 0.060579848 -0.045802508 -0.093960226
000080 9f 4b 49 bc 1a 56 32 bd 4a 91 78 3d 76 9d 67 bd
       -0.012286096 -0.043539144 0.060685433 -0.05654665
000090 1c 56 9a 3d 72 3c 10 3e c8 15 05 3e e7 56 2d 3d
       0.07535955 0.14085558 0.1299659 0.042319205
0000a0 92 25 93 bc 66 87 cb bc 42 0d 0e 3c 1b ce 6b bc
       -0.01796225 -0.024844836 0.008670153 -0.014392401
0000b0 22 78 da 3b 7c b1 a3 3d 8f 99 5f bd 23 40 62 bc
       0.006667153 0.07992837 -0.054589804 -0.013809237
0000c0 2a 63 94 bc ae ff 51 3d 86 24 e6 3d c3 2e 31 bd
       -0.018113691 0.051269226 0.11237435 -0.043257486
0000d0 81 99 34 3c 8c 9a b2 3d 14 8c 44 3d 45 f4 d2 3d
       0.011022926 0.08720884 0.04798515 0.10300497
0000e0 c5 25 1c 3b 68 29 bc bd 4f d6 c5 3d d1 c8 ed 3c
       0.0023826223 -0.09187585 0.09660017 0.02902642
0000f0 01 c4 b1 bc d1 cf 87 3c 8e 2e 8e 3d 39 11 b9 3d
       -0.021699907 0.016578587 0.06942473 0.09036488
000100 b7 a4 e9 3d 38 35 d7 bd 0a 27 9f 3d a0 81 da 3d
       0.1140837 -0.105081975 0.07771118 0.10669255
000110 1a 84 2f 3e 23 c3 21 3e bf 25 36 3d 39 4f 8c 3c
       0.17140236 0.15797095 0.04446959 0.01712762
000120 43 5f 76 3d 2c 12 32 3e 26 0e 55 3b a7 49 c5 3b
       0.060149442 0.17389745 0.0032509654 0.006020743
000130 0c ad 27 bd 04 ba 9d 3d 1b cc 9b 3d c6 1b 59 3d
       -0.040936515 0.07701495 0.076072894 0.053005002
000140 5b e8 b1 bd 54 05 ff bd 7f 42 ec 3d f0 11 90 bc
       -0.086868964 -0.12452188 0.115361206 -0.017586678
000150 2c 8d 3d bd d8 57 7c 3d 76 de 29 3e f8 b7 3e 3d
       -0.04627721 0.06160721 0.16588768 0.046562165
000160 aa 91 17 3e 42 de e5 3c 19 3f 89 3d af 9b b0 3d
       0.1480166 0.028060082 0.06701488 0.08623444
000170 48 09 3d bd b8 32 27 bd 35 a0 df bd 18 b0 99 bd
       -0.04615143 -0.040819854 -0.10919229 -0.0750429
000180 97 bf 78 3d 41 d5 58 3d db a7 ed bc 40 10 c1 3d
       0.06072959 0.05293775 -0.029010704 0.094269276
000190 1f df 81 bc 8e 71 c6 3b 40 7e 20 3d 07 d6 36 3d
       -0.015853463 0.0060560172 0.0391829 0.044637706
0001a0 fa fa 6b 3d cc 8b 60 3d 44 40 33 3d a9 04 53 3d
       0.057612397 0.05482082 0.04376246 0.051518116
0001b0 8a 38 df bc 5e 28 c7 3d 8f 02 87 3c 8f 4f 17 3e
       -0.02724864 0.09724496 0.016480712 0.14776443
0001c0 27 98 9a bd 13 93 6d 3c 2d 10 c7 bc f6 bd 46 bc
       -0.07548552 0.014500397 -0.024299705 -0.012130251
0001d0 b6 2c cd bc bc 68 8d 3d be 2e c6 3d 7c 21 db 3c
       -0.025045734 0.06904742 0.09676884 0.026749365
0001e0 bd 7b ea 3d da 04 be 3d b5 32 bc bd 64 c9 74 3d
       0.114493825 0.09278269 -0.09189359 0.059762374
0001f0 5b 03 fa 3c 83 bd 8d bd 39 05 e9 3d aa 7e 14 3d
       0.030519178 -0.06920912 0.11377949 0.03625361
000200 70 52 b4 3d 3a 8a db 3c 56 2e da bc a4 8e 51 bd
       0.08804786 0.02679931 -0.026633423 -0.051161423
000210 a1 48 b0 3d 88 85 0a 3d 79 7d 2c be bd 64 bd bb
       0.08607603 0.03381875 -0.16844739 -0.005779831
000220 77 a2 05 bd 2e 68 30 3e a5 ef 95 bd d0 17 f7 bd
       -0.03262564 0.17227241 -0.07321099 -0.12065089
000230 19 1d bb 3d 99 b9 60 3d ad 5b 1c be e4 25 a9 3d
       0.09136409 0.0548645 -0.15269347 0.0825918
000240 81 d7 6d 3c 17 6e ff bb 9c dc 92 3d 1b a8 82 3c
       0.014516712 -0.007795106 0.07170984 0.0159493
000250 18 ec 67 3c b1 45 b8 3a 4d 72 29 3d 38 eb 80 3d
       0.01415541 0.0014058856 0.04136877 0.062948644
000260 7f 60 c8 3d 87 7a 91 bc de 6a 23 3e 76 dc 1f 3d
       0.0978403 -0.01775862 0.15958735 0.039028607
000270 0e dc 1f bd 06 ba 98 bd 34 37 c8 bd 11 04 ab 3d
       -0.03902822 -0.07457356 -0.09776154 0.08350385
000280 e7 62 84 bd bf 12 90 3c 2c 40 19 bd fa 2e bd 3c
       -0.064641766 0.017587064 -0.037414715 0.02309369
000290 8b d6 ae 3c 0e 1e 5c 3c f9 d0 43 3d 1d a5 2d 3e
       0.021342536 0.0134349 0.047806714 0.16957517
0002a0 54 d2 76 3d 81 b4 cc bc e9 cd dc 3c 59 95 ff bc
       0.06025918 -0.024988415 0.026953654 -0.031199144
0002b0 cf 41 b9 3d 60 33 a1 3b a3 c6 ca 3c 7d e4 89 3d
       0.09045755 0.0049194545 0.02475292 0.06733034
0002c0 5c 0a 31 bd bf 68 a2 3d f0 78 9f 3d 5a f9 7a 3c
       -0.04322277 0.07930135 0.07786739 0.015318239
0002d0 c3 51 81 3d cd eb 1a 3e 79 9b 8b bb c6 d1 5f 3c
       0.06314423 0.15129013 -0.004260477 0.013660854
0002e0 8c 6f c8 3d 72 73 ba 3c a6 3b 00 bd bc bb 6d bb
       0.09786901 0.022760127 -0.031306885 -0.0036275228
0002f0 09 c5 68 bc 48 a8 2b 3c 49 89 8d 3d 93 28 30 3d
       -0.014207133 0.010477133 0.06910951 0.043007445
000300 4a 5b 93 3c b1 38 bb bd 8c fa be 3c e5 15 c7 3d
       0.017987866 -0.091416724 0.02331283 0.09720973
000310 c5 bc 16 3e 82 4c eb 3c dc f1 a9 3c 6d 67 a0 bd
       0.14720447 0.028723005 0.02074521 -0.07832227
000320 58 38 03 3d f2 52 7b 3d 6c b8 e1 bd df 75 45 3d
       0.032036155 0.0613584 -0.11021504 0.048208114
000330 47 92 14 3c ab 5f 93 bd 8c 00 ed bd 27 e9 19 bd
       0.009068078 -0.071959816 -0.1157237 -0.037575867
000340 d6 c3 74 bc 40 1b 28 3e 62 81 bb bd 4f 0a 28 3d
       -0.014939269 0.16416645 -0.09155537 0.041025456
000350 27 69 39 bc 20 7f ff 3d 4d a7 1f 3e 7c a7 31 3e
       -0.011316574 0.12475419 0.15591164 0.17349046
000360 7a df b7 3d b6 16 57 bd 20 64 1e 3e 50 cd a6 3d
       0.08978172 -0.052511893 0.15467882 0.08144629
000370 75 33 b9 3d 0c 0d 93 bd e4 4d 3e bd fc 96 2e 3d
       0.09043018 -0.07180223 -0.046461 0.04262446
000380 7d c6 85 bd 5c ad b1 3d af 3f 17 bc 13 55 1e 3d
       -0.06531999 0.08675644 -0.009231492 0.03865535
000390 5c ba 0f 3e db 04 73 bd e9 2d 21 3d f6 c3 75 3d
       0.14035934 -0.059330802 0.039350424 0.060001336
0003a0 5a 94 2c 3d bf bf 00 bd 57 c1 79 bd a5 c9 2a 3e
       0.042133667 -0.031432863 -0.0609754 0.16678484
0003b0 9d 72 22 3d a3 ed 0d 3e 55 19 1b 3e 29 d4 14 3e
       0.039660085 0.13860182 0.15146382 0.14534058
0003c0 6f ae 32 bd 89 3c f8 3d e7 60 48 3d e1 6a 6a bc
       -0.043623384 0.12120921 0.04892054 -0.0143077085
0003d0 8d c4 5e 3d be 88 ef 3d 05 a9 1f 3e 0c 32 35 3e
       0.054386664 0.116960034 0.1559182 0.17694873
0003e0 04 ce c3 3d 7e b2 5f 3d 10 81 08 3d d1 c3 17 bd
       0.09560779 0.054613583 0.03332621 -0.03705198
0003f0 3e 6b 81 3d c5 58 9a 3d d7 21 6b 3d 47 b1 1e bb
       0.06319283 0.07536463 0.05740532 -0.0024214552

bias f4 [50]
000000 dc ab 86 bd df 1c 78 3d 24 cb 90 be 85 b8 4f 3e
       -0.06575748 0.06057441 -0.28279984 0.20285232
000010 7e 97 51 3e 70 2a ca 3d 43 6c 73 b9 47 4c 25 be
       0.20467946 0.098713756 -0.00023214617 -0.16142379
000020 9b f8 a7 3c fc f2 49 bd 5e 7b 43 3e 52 22 e4 3d
       0.020504287 -0.049303994 0.1909003 0.111393586
000030 56 bf 9b 3d c4 fa 05 be 94 c0 3a 3e 9b 02 a8 3d
       0.07604854 -0.1308394 0.18237525 0.08203622
000040 e2 43 f7 3e 63 63 6f 3d 30 0b 85 bd ca 9a 82 3e
       0.48293978 0.058444392 -0.064962745 0.2550872
000050 c1 54 86 be 19 a4 42 3e 5f ad 6c be cc 1d c8 bd
       -0.26236537 0.19007911 -0.23113011 -0.09771308
000060 20 4c 03 bd 68 40 80 3d 5c f5 23 3e 0f 5d 17 3e
       -0.03205502 0.062622845 0.16011566 0.14781593
000070 62 aa 5d 3e 1a 7d 74 3e 07 fe 78 3e 97 10 70 be
       0.21647027 0.23875847 0.24315654 -0.23443829
000080 67 ec c1 3c e5 7e 41 3e 22 dd 7d 3e 51 e7 30 3d
       0.023672296 0.18896063 0.24791387 0.04318935
000090 4c 73 ec bd 6a 93 fb 3c 16 5d a1 be 51 56 13 3e
       -0.11545429 0.030709941 -0.3151633 0.14388396
0000a0 da 6a 0e 3d 13 11 1e 3e a7 ed 9c bd cf c8 3f 3d
       0.03476987 0.15436201 -0.07662516 0.046822365
0000b0 c9 8a d3 bd 26 31 75 3e 34 15 c2 bd f9 40 e4 3d
       -0.103292055 0.2394453 -0.094767004 0.11145205
0000c0 8f c0 83 3e 13 9d 99 3e
       0.25732848 0.3000265

weight f4 [128, 50]
000000 da d2 7d 3e 1e 3b 3e be 85 67 14 bd df fb 6a be
       0.24787465 -0.18577239 -0.036231536 -0.22947644
000010 37 86 b4 bd 98 80 bc 3d 00 37 0d be dd 2a ac bd
       -0.08814662 0.09204215 -0.13790512 -0.08406613
000020 99 eb 44 3d 0e 10 9c 3d c1 00 94 3d c3 69 b4 3d
       0.048076246 0.0762025 0.07226706 0.08809235
000030 f3 cb f1 3b 0b 3f 0b bd 60 8e d6 3b 2b 56 5d bd
       0.007379049 -0.03399567 0.006547734 -0.054037254
000040 be 75 20 3c e6 ea f9 bc 9b 13 30 3e 44 4d 9a bd
       0.009793697 -0.030507516 0.17194979 -0.075342685
000050 b4 9b 2d 3c aa b6 71 3d 13 f0 c2 3c b9 ec d3 3d
       0.010596205 0.059012093 0.023796117 0.10347886
000060 a9 b8 8c bc 44 67 59 bd 41 c3 83 3d e7 ce 38 bc
       -0.017177897 -0.053076997 0.06433726 -0.011279798
000070 ee a1 3a 3d 5b ae f2 3d 95 da 38 be 47 5d b7 bb
       0.045564584 0.11849662 -0.18052132 -0.0055958363
000080 b9 3c 09 3e 56 43 0b be 1a b4 cb bd f7 1a ea 3d
       0.1340207 -0.13599905 -0.09946461 0.114309244
000090 70 08 3f 3d b6 78 da bd 9a 40 c5 bc b5 44 cf 3d
       0.046638906 -0.10667555 -0.024078656 0.10120527
0000a0 27 e2 3c bd 29 d1 53 3d cc 60 13 3e 38 f4 48 bd
       -0.046114113 0.051713143 0.14392394 -0.04906103
0000b0 a2 e4 fb bd 2b d3 61 bd 01 95 78 bd a7 e2 01 be
       -0.122994676 -0.055133026 -0.060688976 -0.12684117
0000c0 12 85 1d 3e a2 d0 2b 3e 45 c3 a0 bd 7a 54 b3 bd
       0.15382794 0.16778806 -0.07849745 -0.08756347
0000d0 53 3f 12 be 8c 1a 7d 3d a2 80 c3 bc 72 32 c3 3c
       -0.14281969 0.061792895 -0.023865048 0.023827765
0000e0 b7 8b 84 bd 60 3b 8b bb 43 8f 27 3e 43 cf 93 3d
       -0.06471961 -0.0042490214 0.16363244 0.072172664
0000f0 45 14 92 bc fb 13 f8 bc 5b 21 ed 3d 0d 65 84 bd
       -0.01783193 -0.030282965 0.11578628 -0.064645864
000100 81 1d 36 3c 5d 8e 02 3c 87 10 37 3e 8a c8 e8 3d
       0.011115433 0.007968512 0.17877398 0.11366375
000110 e6 f8 eb bd df cd 58 bc ed a0 00 be 3b 46 91 bc
       -0.11522083 -0.013232677 -0.12561388 -0.017733684
000120 38 eb a9 bd d8 d5 91 bd 13 5a a2 bc 80 74 b4 3d
       -0.082968175 -0.071208656 -0.019818341 0.08811283
000130 de f3 90 3d f7 1a 9b 3d 38 06 b3 bd c8 92 e0 bd
       0.07077764 0.075735025 -0.087414205 -0.10965496
000140 da 06 11 bd a0 b8 15 3e e5 6b 42 bd 43 45 2d 3e
       -0.035406925 0.1462121 -0.047466177 0.16920952
000150 c0 49 0f 3d 71 56 84 3c dc ae 17 3d 2b 0b 6d 3d
       0.034982443 0.0161545 0.037031993 0.05787198
000160 df 9a 10 3e 66 c9 0f be af 85 67 be 12 bd 80 bd
       0.14121579 -0.14041671 -0.2260959 -0.06286062
000170 28 cb 45 bd 4a 4a a9 bd 04 fa f0 3d 9f 78 a9 3c
       -0.048289448 -0.08266123 0.11766437 0.0206874
000180 e6 bb b7 3d 31 95 80 bc 68 72 74 ba aa ba b6 bc
       0.08971386 -0.01569614 -0.0009324909 -0.022305805
000190 d4 ca fe bd df 6f b7 bd 8a 49 38 bd 2a 6e 83 3c
       -0.1244103 -0.089568846 -0.044992007 0.016043741
0001a0 b0 56 8d bd 74 e3 d6 bd f2 85 88 be 0e d5 45 be
       -0.069013 -0.10492602 -0.26664692 -0.19319555
0001b0 ed 93 28 3d 63 34 00 3e 13 b6 43 3d 34 5f b5 3c
       0.041156698 0.12519984 0.04778106 0.022140123
0001c0 4c 4e 95 bb f8 e4 c7 b8 af fe 47 be 8d 3f 8e 3d
       -0.004556453 -9.531708e-05 -0.19530748 0.06945715
0001d0 9a 2f 8c bd fc 11 43 bc c1 24 86 3e 6c 77 bd 3c
       -0.06845017 -0.011906143 0.26199916 0.023128234
0001e0 01 d4 bf 3b 9f 1b 32 bd 9f 0c ab 3b b4 b2 c1 3c
       0.0058541303 -0.043483373 0.0052200104 0.023644783
0001f0 95 d7 dc bd 45 c0 8a 3c cd 69 12 3d cc fd 03 3b
       -0.107833065 0.016937384 0.03574543 0.0020140288
000200 b8 bb 9e 3d fe 87 cb 3c 2d 87 9c 3d a6 f4 eb bd
       0.07750648 0.02484512 0.0764297 -0.11521272
000210 1f 5d ea bd f7 85 7d 3d 36 eb 1f 3c 1e b6 94 3d
       -0.11443543 0.061895337 0.0097606685 0.072612986
000220 74 e8 8f bd ef a4 3d 3d 0a 63 68 3d 30 ab ee 3d
       -0.07026759 0.04629987 0.056735076 0.11653745
000230 bf 5e 2b be be c0 08 3e 90 45 a7 3b af ab 47 3c
       -0.16735362 0.13354775 0.005104728 0.012186929
000240 37 3b 07 3e 9d 0a d8 3d b7 32 37 3d 01 65 dc 3d
       0.13206182 0.10548899 0.0447261 0.107614525
000250 03 dc 3c bd 01 de 49 bc 7f c2 90 bd 3a 18 93 bd
       -0.046108257 -0.012320996 -0.07068347 -0.07182355
000260 0f 4a 2d 3c 9d 49 ad bd 6e d5 e1 bc 83 07 ef 39
       0.010576739 -0.08461306 -0.027567592 0.0004559123
000270 52 f0 a0 3c 56 bd 80 3d 15 b3 1a be 92 68 bf bd
       0.019645844 0.06286113 -0.15107377 -0.09346117
000280 be 0b 87 3d b0 a7 63 bd b6 d3 db 3d 4c 19 ba bb
       0.065940365 -0.05557984 0.1073374 -0.005679285
000290 ad 5f 03 3b f5 9a 98 3e 0c cc 08 3e fa be e4 bd
       0.002004604 0.29805723 0.13359088 -0.111692384
0002a0 16 1f cb bd c4 65 38 3d 28 d7 c3 bd 58 fb 10 be
       -0.099180385 0.045018926 -0.09562522 -0.1415838
0002b0 5a b7 39 bb e3 40 20 3e 49 f4 fb 3c ab 72 2e ba
       -0.0028338046 0.15649752 0.030756133 -0.000665466
0002c0 5b 2f 98 3b 59 fc 9b 3c 48 3e 2a 3e ca 70 1d bd
       0.004644317 0.019041227 0.16625321 -0.038437642
0002d0 5b 9f 22 3e 11 74 56 bd 97 5b 0e 3d 43 d8 0a bd
       0.15881102 -0.052356783 0.034755316 -0.03389765
0002e0 fb 6f 77 bc 55 be bd 3d 7f c4 79 bc 98 c4 1c bd
       -0.015102382 0.092648186 -0.015244602 -0.038273424
0002f0 9b 0b 7d 3c 86 22 db bd da 2b c6 bd 21 17 bc 3d
       0.0154446615 -0.10699944 -0.09676333 0.09184099
000300 28 44 b7 3d 72 e6 1e 3e 98 b3 e3 3d 5a 54 a3 bb
       0.08948547 0.15517595 0.11118239 -0.0049844207
000310 a6 fe dd bd 8c e5 cc bd 3a e8 49 3c b6 5f b2 bd
       -0.10839586 -0.1000472 0.0123234335 -0.08709662
000320 6b c4 e8 bc 43 39 69 3d 58 f3 54 3d 80 97 95 bd
       -0.028413972 0.056939375 0.051989883 -0.07304287
000330 78 10 57 bd db 3f 77 bd 79 4d 85 bd 8e 87 c3 bd
       -0.05250594 -0.06036363 -0.06508917 -0.095473394
000340 d8 f4 76 bd ab aa fb ba 93 61 a6 bd cc 81 25 3d
       -0.060292095 -0.0019200643 -0.081240796 0.040406987
000350 09 6a 00 be 60 ff 1d 3e c4 25 e8 3d da 08 3c bc
       -0.12540449 0.15429449 0.11335328 -0.01147672
000360 6e bb 1f bc c6 b1 f1 3d 57 21 9f bc b1 94 56 3e
       -0.009749277 0.11801486 -0.019425077 0.20955159
000370 66 5f 88 bd 12 a4 94 3c 11 67 ea 3d 31 9e d2 bb
       -0.06658821 0.018144641 0.114454396 -0.0064275493
000380 8c ad 2c 3e 78 93 25 bd 30 35 15 be 80 39 10 3c
       0.16863078 -0.04042384 -0.1457107 0.008802772
000390 f8 c4 1c bd c4 42 97 bd 66 ee c6 bb aa 87 0e bd
       -0.03827378 -0.073857814 -0.0060709 -0.034797348
0003a0 ec 6f 49 3c e6 ae 35 bd d3 2d b4 3d 52 e8 c3 bd
       0.012294751 -0.04435625 0.08797803 -0.09565796
0003b0 ce 19 83 bc 94 c4 14 bd 8e 8d db bd d2 fe cf bd
       -0.016003516 -0.036320284 -0.10720359 -0.10156025
0003c0 b6 68 18 3e bf 67 2e 3d ac 5c 2d 3c 72 c4 04 3b
       0.14883694 0.04257941 0.010581177 0.0020258692
0003d0 39 7c a5 3d 2e 41 7a bd cd df 48 be 87 89 4c 3e
       0.08080334 -0.061097316 -0.19616623 0.19974338
0003e0 cf c5 f5 3d fd a8 98 3d 25 56 ae 3d d3 4e 1e bd
       0.120006196 0.07454107 0.085125245 -0.03864939
0003f0 5a 59 02 3d 97 ce 8b 3d 37 ec a0 3c 06 a1 30 bd
       0.031823494 0.06826513 0.019643886 -0.043122314

bias f4 [128]
000000 ba ea d1 3d 86 c9 22 bc f6 8c 45 3c f7 80 5a be
       0.10249849 -0.009935742 0.0120575335 -0.21338259
000010 1c a1 07 bd ea 40 f6 3e 1c 0c 0b 3e 87 61 38 3e
       -0.03311263 0.480964 0.13578838 0.18005954
000020 fa 84 6d 3e 08 fe 89 3c fc af 3e bf c1 c3 ec 3d
       0.23195258 0.016844764 -0.7448728 0.115607746
000030 ba fd 00 bf a4 c1 bb bd d2 74 aa 3e ab 1a bd bd
       -0.50387156 -0.091677934 0.33292252 -0.09233602
000040 89 36 2a 3f e8 02 9c be 9a 99 12 bd a5 a2 f5 3d
       0.66489464 -0.30470967 -0.035791017 0.119939126
000050 95 fe 98 3e 92 66 d6 3c b2 3c 08 3e cb 69 76 be
       0.2988173 0.026171956 0.13304403 -0.24063794
000060 2c bc 92 3e 1e 60 88 3e 38 1e 36 be c1 f5 36 3e
       0.2865919 0.26635832 -0.17784965 0.17867185
000070 37 f1 5f 3e 8c 8c b8 3e a6 d0 0a be c7 22 4b 3e
       0.2186936 0.3604473 -0.13556156 0.19837485
000080 87 df 58 bc be ae 44 3e 82 22 ee 3d 77 bf 96 bd
       -0.013236887 0.19207284 0.116276756 -0.07360738
000090 b0 b2 a9 3c df 98 0a 3e ef dc b6 3d 65 29 36 3e
       0.020715088 0.13534878 0.089288585 0.17789228
0000a0 28 ff 95 3d 1a cd 06 3e 9e 01 96 3e fe 51 5d 3e
       0.07324058 0.13164178 0.2929811 0.21613309
0000b0 1d 23 03 bf 1f 4b 09 3d e1 73 c4 3e 50 6b 71 3e
       -0.51225454 0.033518907 0.3836966 0.23576093
0000c0 4b 24 cf 3d 97 b9 82 3e 61 09 a5 3d 39 7a 17 3e
       0.10114344 0.2553222 0.080584295 0.14792718
0000d0 d1 58 d7 bc fa 17 da 3d b4 11 5e 3e c3 70 9d be
       -0.026287468 0.106491044 0.2168644 -0.30750093
0000e0 ee cb eb 3c 4e ce 90 3e 61 11 29 bc 35 72 46 bd
       0.028783765 0.28282398 -0.010319085 -0.04844876
0000f0 48 e5 d8 bc b4 9b 68 bd 07 75 ab be 10 2d c3 3d
       -0.026476517 -0.056789115 -0.33487722 0.09530079
000100 2d 8b 48 bd 48 ec d8 3d 07 88 32 be 6f a1 bc 3e
       -0.048960853 0.10591942 -0.17434703 0.36841914
000110 70 f3 e4 be b4 96 13 bd 64 63 56 3e c1 e6 45 3d
       -0.44716978 -0.036032394 0.20936352 0.048315767
000120 87 84 48 3e 96 f1 d7 3c c5 b6 61 3d 71 f1 d3 3e
       0.19581805 0.026360314 0.055105943 0.41395143
000130 12 7f 64 3e 52 f3 cb 3d 57 12 7d 3d 03 3f 0f 3d
       0.22314098 0.09958519 0.06178507 0.034972202
000140 d8 59 0f 3d 26 13 c2 be 94 91 79 be de ae 43 3f
       0.03499779 -0.37905234 -0.2437194 0.764387
000150 80 39 66 3b 67 e5 9b be 72 bc cf bc 0e 50 97 bd
       0.0035129488 -0.30448458 -0.025358412 -0.07388316
000160 ff ac 29 be 33 b5 53 3e 5e 7a 48 3e 7e f4 73 3b
       -0.16569899 0.20674591 0.1957793 0.0037224586
000170 6c 2d 97 bc b7 f0 a1 3d 29 b3 7b 3e 34 1b 97 3b
       -0.018454276 0.07907241 0.24580063 0.004611397
000180 61 3d 49 3f 8f 40 1e be 43 78 38 3e 45 21 77 3e
       0.7860928 -0.15454315 0.18014626 0.24133785
000190 26 d3 a8 3d b8 ea 83 3d 0e 2e 65 3e 2e f6 4c 3e
       0.08243398 0.064412534 0.2238085 0.20015785
0001a0 75 5b d0 3e ee b2 13 be ac 18 d7 be 10 68 93 3e
       0.40694776 -0.14423725 -0.4201101 0.2879033
0001b0 d5 d5 5f 3e 75 8f 59 bd 30 1c 73 3e 23 fd 38 3e
       0.21858914 -0.053115327 0.23741221 0.18065314
0001c0 76 59 46 be df 90 00 3e 4d 85 21 be 68 cf 0e 3f
       -0.19370064 0.12555264 -0.15773506 0.55785227
0001d0 43 6c cc 3d ad 36 80 3d 6d 35 5f 3e 0e a5 35 bb
       0.09981587 0.062604286 0.21797724 -0.0027716788
0001e0 70 f9 33 bd 5b 52 13 3f 6a c3 8f 3e e7 2e dd 3c
       -0.043939054 0.5754754 0.28078777 0.026999904
0001f0 db 63 9b 3d bd 05 c7 be c6 f8 4e 3f 25 32 87 be
       0.07587405 -0.38871565 0.8084835 -0.26405445

weight f4 [200, 128]
000000 cf 65 32 bc 4b 02 52 3c fe b0 b1 bb f3 19 51 3c
       -0.010888531 0.0128179295 -0.0054227104 0.012762534
000010 a1 7a a8 3c fb cd 88 bc 92 2c 8b bc dc f2 56 3c
       0.020566287 -0.016699782 -0.016989026 0.013119426
000020 4e 96 0e 3b 78 24 35 3c 9d e9 04 bc d7 58 0c bd
       0.002175707 0.011056058 -0.008112338 -0.03426441
000030 15 ab cd 3b 63 8e 08 3c 0e 30 9a 3a 31 6a ff 3b
       0.006276498 0.008334729 0.0011763589 0.0077946414
000040 5a cf ac bb c1 7a 78 3b 75 65 85 3c ba e4 86 3c
       -0.0052737417 0.0037914964 0.01628373 0.016466487
000050 7d 4b 26 bc 17 99 8b 3c 0d b6 16 bc 5c 14 e7 bb
       -0.010149834 0.017040772 -0.009198678 -0.0070519876
000060 dd 83 dc bc 4a 9f a3 3c 01 7b bf 3c d6 b8 b1 3b
       -0.026918346 0.019973416 0.023374083 0.0054236455
000070 d4 01 6c 3c 54 a6 8b bc db bb c2 bb 0e 58 3f bc
       0.014404733 -0.017047085 -0.0059428043 -0.011678709
000080 24 84 00 3a 11 38 4a bd 29 73 23 3c 33 e3 cf 3c
       0.0004902503 -0.049369875 0.009976187 0.025376892
000090 a6 2c 4e bb fc 51 07 bb dc e5 06 bd 8b 83 cf 3b
       -0.0031459718 -0.0020648232 -0.032934055 0.00633282
0000a0 78 e6 9c 3a 1f f3 81 3c d0 cb a9 3c da 17 95 3c
       0.001197054 0.015863 0.020727068 0.01819985
0000b0 e5 07 e9 3b 39 7c e5 bb a4 16 2a bc a8 e3 81 bc
       0.007111537 -0.007003334 -0.0103813745 -0.015855625
0000c0 0b 71 26 bc c4 11 1d 3d 8b 68 da bb d5 7c fe bb
       -0.0101587875 0.03834702 -0.0066652945 -0.007766346
0000d0 76 35 14 3d 89 15 26 3c f3 c9 46 bd d4 df ab 3b
       0.036183797 0.01013697 -0.048532438 0.0052451883
0000e0 db 39 5f 3b 11 c2 ff bb 3e dd 04 bc 56 a7 e9 39
       0.0034061584 -0.007805117 -0.008109389 0.00044565898
0000f0 70 4a fb 3c 57 5f 97 bc fc da 7b 3c 89 35 2a bf
       0.030675143 -0.018478079 0.015372034 -0.6648794
000100 d4 6d a6 3c 75 d9 ae bc c7 2f 2c bd 1b cf d2 3b
       0.020316042 -0.021343926 -0.04203775 0.0064333803
000110 8c 88 99 3b 12 e4 ac 3c 82 10 d9 3c b1 c5 60 bc
       0.004685467 0.021104846 0.02649713 -0.013719008
000120 79 1f fa 3c b6 39 9e bc 78 50 9e 3c 49 62 5c 3c
       0.030532585 -0.019314628 0.01932548 0.013451167
000130 74 1b 10 3e 93 6a c3 3a 48 7c 6f 3d 87 80 15 3d
       0.14072973 0.0014909081 0.058468133 0.036499526
000140 35 da f6 3c bd 0e a7 bc 08 fd 27 bd c4 10 fb ba
       0.030133346 -0.02039277 -0.041012794 -0.0019154777
000150 de 84 2d 3f f9 22 59 3c 0f ea a5 3c de 62 f6 3a
       0.67780864 0.013252967 0.02025321 0.0018797775
000160 12 33 84 3c 67 8a f5 bb fd dd ff bb 75 36 fb bc
       0.016137633 -0.0074933055 -0.0078084455 -0.030665616
000170 45 1c 1a 3c 28 69 75 bc 4b d5 08 3b c2 bb 54 3c
       0.009406154 -0.0149786845 0.0020879086 0.012984218
000180 6d b3 43 3b 00 e7 a7 3b 0f 59 0c bd 46 10 ca bc
       0.0029861585 0.005123973 -0.03426462 -0.024665963
000190 66 11 96 3c f5 7c 2b 3c 37 45 90 3a 52 61 35 bc
       0.018318843 0.010466804 0.0011006956 -0.011070566
0001a0 99 06 bd bc 1b ee da bb ce a8 0d bb 29 07 2d bd
       -0.023074435 -0.0066812164 -0.0021615508 -0.042243157
0001b0 80 ef de 3b a1 a5 79 3c 42 12 d9 3c d6 54 ba 3c
       0.006803453 0.015237243 0.026497964 0.022745531
0001c0 06 a9 4d bc 02 28 9c bc 63 91 06 bd f6 f7 d8 3b
       -0.012552505 -0.019062046 -0.032853495 0.006621356
0001d0 ae 5b 97 3c 2f 19 41 bc 49 b2 01 bd 0a 9b 30 3d
       0.018476333 -0.011785789 -0.031664167 0.043116607
0001e0 2b e2 02 3c d9 a2 2b bb 82 15 24 3c 13 ff 3d 3b
       0.007988493 -0.0026189594 0.0100148935 0.0028991147
0001f0 4a 54 d7 3a f7 29 0a bb 8d e0 ca bb e2 d5 2a bc
       0.0016428318 -0.0021082142 -0.0061913193 -0.01042697
000200 4b 56 e7 3c f6 d9 c1 bd d8 ef 92 3c d3 58 e1 3c
       0.02823939 -0.09465401 0.017936632 0.027508175
000210 eb de ef 3d a6 80 5f 3b 2c 14 d5 bd 93 39 45 bb
       0.1171244 0.003410378 -0.10404238 -0.0030094131
000220 f9 8e 61 3d cc de 98 bb 09 eb 0e 3b 72 75 14 3d
       0.05506799 -0.0046652313 0.0021807572 0.036244817
000230 18 ce ad bb 83 e8 68 3c fb 55 92 bc a4 9f 9c 3c
       -0.0053041093 0.014215591 -0.017863264 0.019119091
000240 42 a2 30 3d bc ee 6c bd 95 f0 16 3d 7c 7e 6c bc
       0.04312349 -0.057844862 0.03685053 -0.014434453
000250 e4 3e 71 3d 13 2b e6 bc 10 10 b3 bb ac 90 5d bd
       0.058897868 -0.028096711 -0.0054645613 -0.054093048
000260 10 98 0d be 0b 2d 3e bd 82 89 00 bc d6 bd 67 3e
       -0.13827538 -0.046429675 -0.007845284 0.2263101
000270 6b b2 02 3c 75 ab 81 bd 28 f6 c5 3a 32 1e 02 bd
       0.0079771085 -0.06331531 0.0015103268 -0.031767078
000280 14 9c 8a bc 1d de 06 3d ac 1d 7f bd 49 b0 d4 3c
       -0.016920127 0.032926667 -0.062284157 0.025962966
000290 14 9f 3f 3b fa 0b bf 3d d2 54 98 bb ba 66 32 bd
       0.0029239105 0.09328456 -0.0046487832 -0.043555
0002a0 c2 3c 3c 3e d7 42 ae be 07 88 24 bd c5 23 1e 3e
       0.18382552 -0.3403537 -0.04016879 0.15443332
0002b0 aa d2 62 bc f1 75 43 bd 3a 35 3b bc 8f 86 f3 bc
       -0.013844172 -0.0477199 -0.011426264 -0.029727248
0002c0 71 3f e7 bc d4 3f 26 bd aa fd 0b bb 4c b1 f7 3c
       -0.028228493 -0.040588215 -0.0021360912 0.030235909
0002d0 66 22 85 bc 6c 83 d8 bc 14 69 41 3e 25 ea 80 bb
       -0.016251754 -0.026429854 0.1888774 -0.003934162
0002e0 91 76 a3 3c 59 47 48 3d 1e c5 f1 bc ce 43 b2 3c
       0.019953998 0.048896167 -0.029512938 0.021760847
0002f0 0f 87 36 3d 69 c7 01 3c f7 28 0f bd bc ca 47 bb
       0.044562396 0.007921078 -0.034951176 -0.003048583
000300 f3 c3 9b bc 54 1f 62 3c 54 43 5d 3c 5d ca 25 3b
       -0.019014334 0.0138014145 0.013504822 0.002529762
000310 f2 64 30 bc 63 17 06 3d b6 fe 14 bd ba e7 34 3d
       -0.010766255 0.032737147 -0.036375724 0.044166304
000320 99 bd 81 bd 9c 78 57 3b 29 43 b8 3d c5 32 39 bb
       -0.06334991 0.0032878285 0.08997185 -0.002825902
000330 4e da 03 bd ed db 37 3d 05 43 4e 3e 28 fe 7e 3c
       -0.032190613 0.044887472 0.20142753 0.015563525
000340 59 06 b7 3d 6d ad a1 3a 8e 9b 40 bd e8 22 12 3c
       0.089367576 0.001233501 -0.04702335 0.008919455
000350 bd c5 d7 3b 1d be 73 3c 8d f1 b1 bc 78 80 00 bd
       0.0065848515 0.0148768695 -0.021721626 -0.031372517
000360 ef 6d a8 bc 34 e1 65 3d a3 a3 8b bb 69 c0 1a be
       -0.020560233 0.056122974 -0.0042614504 -0.15112461
000370 92 bb 45 3c bd 80 2b bd 18 52 cd 3c 73 32 d3 3c
       0.012068646 -0.04187082 0.02506356 0.025780892
000380 8c 1e 1a 3b bb 33 86 bc 7d c8 3e 3c dd 8c 0f bb
       0.0023516743 -0.016382089 0.01164448 -0.002190403
000390 52 16 f0 bd 2e 27 8d bc f5 81 a2 bc 9a 92 ac 3c
       -0.11723007 -0.017230596 -0.019837359 0.021065999
0003a0 0e 85 2d ba bc fd e3 bc 6a 3b 29 bc c1 1b 8a 3d
       -0.0006619253 -0.02783095 -0.010329107 0.06743575
0003b0 b4 38 d4 3d 77 6c ce 3c 91 67 5f be 49 5a 4c 3d
       0.10362378 0.025198204 -0.21816851 0.04989079
0003c0 06 e4 c7 3d 4d 89 1e 3d 8d 2f b4 3c f9 dd 02 3d
       0.09760289 0.03870516 0.02199533 0.03194997
0003d0 9c 24 b4 bc 6f d8 21 bc 61 1d 77 bd 17 b9 0a bd
       -0.021990113 -0.009878262 -0.060330752 -0.03386792
0003e0 25 97 8f bc da 74 de bc c2 ec 5a 3c ee 6f ee bc
       -0.017528126 -0.027155329 0.0133621115 -0.029106107
0003f0 af f5 5d bc 12 9a b8 3c 11 20 41 3c 5f 5a af bc
       -0.013547345 0.022534404 0.01178743 -0.021405397

bias f4 [200]
000000 4f 14 1a 3d a3 f0 89 bd 4a 0f c0 be 3d f0 93 bd
       0.037617024 -0.06735351 -0.37511665 -0.07223556
000010 72 e7 d2 bd 69 79 56 3c 76 98 51 3e 13 81 74 bd
       -0.10298051 0.01309047 0.20468315 -0.059693407
000020 77 fd 20 3e 36 5d 32 3e 98 14 5e bd aa 8b f4 bd
       0.15721689 0.1741837 -0.05421886 -0.11940701
000030 4a 0d 87 3d e0 99 db 3d 20 13 05 3c 08 48 ad 3a
       0.065943316 0.10722709 0.008122236 0.001322032
000040 ff ed 33 be 89 e7 b7 3c 69 17 7c bc 55 15 1d 3e
       -0.17571257 0.022449272 -0.015386441 0.15340169
000050 bc ff f6 3d ba 88 62 be 8c 1a 14 3d a9 a3 1e 3e
       0.12060496 -0.2212247 0.03615813 0.15492119
000060 00 b7 c0 bd 3b ab fd bd f4 a3 20 3e 6e 1f 23 3d
       -0.094099045 -0.12386175 0.15687543 0.039824896
000070 70 75 82 3d fd 76 13 3d 28 2f b6 bd 2a fb 14 bd
       0.06370056 0.036002148 -0.08895713 -0.03637234
000080 19 37 0a be 5c 9d b9 3c 5a 48 26 3e 22 14 8c be
       -0.1349758 0.022658043 0.16238537 -0.2735911
000090 d5 ab 8b 3e 2b 01 d7 bd 2b f8 78 bd b1 04 02 3e
       0.27279535 -0.1049827 -0.060783546 0.12697102
0000a0 8d 7d e2 3c 56 d8 a9 3d ed 5c bc be 4d 29 28 3d
       0.027647758 0.08293216 -0.36789647 0.041055012
0000b0 aa 11 45 3e e0 70 00 3e e6 9e c2 bd 4c a1 fa bd
       0.1924502 0.12543058 -0.09502964 -0.12237796
0000c0 78 4a 89 3d b6 17 c0 bd 9c 04 a3 bc 87 8e d3 bc
       0.06703657 -0.093795225 -0.019899659 -0.025824798
0000d0 e0 7b 55 3e e5 79 89 be b6 98 1e be 46 3f 00 3f
       0.20848036 -0.2685081 -0.15487942 0.5009655
0000e0 4a 48 3f 3e b2 99 95 bc b3 ca d8 3d c8 b7 cc bd
       0.1867992 -0.018261764 0.10585537 -0.09995991
0000f0 62 fc 03 3e c8 ff 63 be f7 b1 cb bd 95 cb 46 3e
       0.12889245 -0.22265542 -0.099460535 0.19413598
000100 cd 2e 26 be 2d 49 46 bd 91 5b bc bd 6f a6 af bc
       -0.1622879 -0.04840963 -0.091971524 -0.021441666
000110 98 ca db be ee 86 4e be 20 72 39 3e b0 ea e0 bd
       -0.42928004 -0.20168659 0.18109941 -0.10982263
000120 78 fe 88 bd 61 3b 44 3c 01 ed 69 3d e7 0e 0d 3d
       -0.06689161 0.011977048 0.05711079 0.03443804
000130 39 56 d0 bd c2 09 27 be f7 71 ed 3b 21 ac 55 be
       -0.10172696 -0.16312316 0.0072462517 -0.20866443
000140 51 e0 a2 3b 9e 61 95 bd 46 94 16 be 5c b3 5d bd
       0.0049705883 -0.072940096 -0.14705 -0.05412613
000150 af dc a2 3d 5e 25 33 3e b4 f1 f3 bd e4 26 34 3c
       0.07952248 0.17494723 -0.119113356 0.0109956
000160 14 64 38 bd 28 0c b6 3e 47 a8 1d bd 14 47 b6 bb
       -0.045017317 0.3555615 -0.03849056 -0.0055626724
000170 1b ed 21 3c e5 91 ff bd 75 39 a8 be 45 d3 6d 3d
       0.0098831905 -0.12478999 -0.32856336 0.05806281
000180 43 c5 23 be ad 27 d7 bd 26 eb 7d bd 50 c9 07 3e
       -0.15993218 -0.105056144 -0.061991833 0.13260388
000190 1f 65 92 bd 55 3c 3d 3b eb fd d5 3d 7d 6b c3 3d
       -0.071481936 0.0028875072 0.10448822 0.09541986
0001a0 f2 68 82 bd 8e 24 5f 3d 29 26 fd 3d 1a 28 cf 3d
       -0.06367673 0.05447822 0.12360794 0.10115071
0001b0 f3 9f e4 bc 0d 95 ac 3b 12 84 19 3e 3a 51 d3 3d
       -0.027908301 0.0052667917 0.14991787 0.10318227
0001c0 93 c4 24 be fe e9 0c be 07 58 78 3d 33 ad 82 bd
       -0.16090612 -0.13761136 0.060630824 -0.063806914
0001d0 26 23 fa bc da ab ba bd 7f 15 32 3e 2c 4e 1f 3e
       -0.030534338 -0.09114809 0.17391013 0.15557164
0001e0 ae aa 5d 3d e8 69 d6 3c 23 de 2f bd a4 f9 b7 3e
       0.05411785 0.026173547 -0.042936455 0.35932648
0001f0 45 50 af bc 15 e3 69 bd 6d db 84 bd 02 bf aa 3d
       -0.02140058 -0.057101328 -0.06487165 0.08337213
000200 c2 7f e4 bc 4a 34 ba be a0 9c 62 be c1 87 08 bd
       -0.02789295 -0.36368018 -0.2213006 -0.03333259
000210 3a 76 82 bd b5 5a c3 bd 26 fa 48 be 66 c2 c2 3b
       -0.06370206 -0.09538785 -0.19626674 0.0059435843
000220 bb 23 a1 be ac 63 fe 3d d7 b9 5e bc 1a ae 16 be
       -0.31472573 0.12421355 -0.013594112 -0.14714852
000230 ac c7 f2 bd 26 0c 55 3d 0f ad 5d 3e 4b 7b 20 3c
       -0.11854491 0.05201354 0.21648048 0.00979502
000240 2a 76 8a 3e 2e 89 4e 3e 10 6e ec 3c aa 83 f9 3d
       0.27043277 0.20169517 0.028861076 0.12183316
000250 1a 9c 3b 3e 13 50 65 3d a9 a0 09 3e 45 5e c8 bc
       0.18321267 0.055984568 0.13440193 -0.024459014
000260 5d ac de 3d db 52 8d 3e 2b 0d 20 bd 31 84 a8 be
       0.108727194 0.27602276 -0.039075058 -0.32913354
000270 c2 09 4f 3e 42 0c 5f 3e 15 90 90 3c 8b 1b c5 bd
       0.20218566 0.2178202 0.017646829 -0.09624394
000280 9a 87 14 3e 40 53 60 3e 67 71 82 3e d5 df 6d 3e
       0.14504853 0.21906757 0.25477144 0.23229916
000290 cb 91 fc 3d af 56 13 3e ac 92 c2 3e a3 ee 24 3e
       0.12332495 0.14388536 0.38002527 0.16106658
0002a0 7a 53 67 3e b4 12 aa bc 52 16 e9 3d f1 43 19 3e
       0.22590438 -0.020760871 0.113812104 0.14967324
0002b0 48 be 2c 3e 66 4b 80 3e d6 0e 84 3e b6 de 2f 3e
       0.16869462 0.25057524 0.2579257 0.17174801
0002c0 aa f2 3f 3e 6e 4b 26 be 0f e8 bb 3c 23 75 ce bd
       0.18744913 -0.16239712 0.022937803 -0.10080936
0002d0 9a 2d 42 3e 54 d5 59 3e bf b1 e9 3d 11 a4 db 3d
       0.18962708 0.21272784 0.114108555 0.107246526
0002e0 ae c7 37 3c 20 5a a9 3d fd a3 91 3d 96 a0 30 3e
       0.011217041 0.08269143 0.071113564 0.17248759
0002f0 d3 20 66 3e cd 21 81 3d 66 c5 07 3e 8a 43 ed 3d
       0.22473459 0.06305275 0.13258895 0.11585148
000300 3a 9e 50 be 5a c4 b9 bc b3 7c 81 3e 02 ea 39 be
       -0.20372859 -0.022676636 0.2529045 -0.18155673
000310 f7 91 48 3e 36 88 67 bc 43 73 87 be c1 fb a0 bc
       0.19586931 -0.014131596 -0.26455125 -0.019651296
